examples/miscellaneous/gromacs_biased_simulations/vae_model.pt (torch, 498405 bytes, 16 tensors)

mean f4 [2648]
0	0x3f6018e1	0.8753796
1	0x3f408af7	0.75212044
2	0x3f52c784	0.82335687
3	0x3f2970c8	0.66187716
4	0x3f3324df	0.69978136
5	0x3f2f1dfb	0.6840512
6	0x3f43f753	0.7654926
7	0x3f44e4cd	0.7691162
8	0x3f51d407	0.81964153
9	0x3f26646e	0.64996994
10	0x3dcdfa2a	0.10057481
11	0x3f5cc48b	0.862374
12	0x3f4f6e47	0.81027645
13	0x3ee28c97	0.44247887
14	0x3efd7d37	0.49509594
15	0x3f2116fc	0.62925696
16	0x3f02415b	0.50880975
17	0x3db1d5ac	0.08683333
18	0x3e3b24a0	0.1827569
19	0x3f29c795	0.66320163
20	0x3f514dcf	0.8175935
21	0x3f5b5051	0.8566943
22	0x3f621861	0.8831845
23	0x3f511c0a	0.8168341
24	0x3f4e0c53	0.80487555
25	0x3f40c576	0.753013
26	0x3f5b9a02	0.8578187
27	0x3f35b6f2	0.7098228
28	0x3f541ffb	0.828613
29	0x3f21191c	0.6292894
30	0x3f67dca5	0.9057105
31	0x3f571e38	0.84030485
32	0x3ec9cd8c	0.39414632
33	0x3f2cfe77	0.6757578
34	0x3f3efb75	0.7460244
35	0x3ebdd36c	0.37075365
36	0x3efc8ba3	0.49325284
37	0x3ecc5e16	0.39915532
38	0x3f4b60ba	0.7944447
39	0x3f52cde9	0.82345444
40	0x3f30630c	0.68901134
41	0x3f3c78c7	0.7362179
42	0x3f24f322	0.6443349
43	0x3ef03497	0.46915123
44	0x3f4cbbce	0.7997407
45	0x3f13d165	0.57741386
46	0x3ec044bb	0.37552437
47	0x3f102981	0.5631333
48	0x3f07fb1f	0.53117555
49	0x3e4fcb69	0.20292439
50	0x3f36e0ba	0.71436656
51	0x3f106f25	0.56419593
52	0x3f3bb0cf	0.73316664
53	0x3f457236	0.771274
54	0x3f58a2e7	0.8462357
55	0x3f2c9947	0.6742138
56	0x3f44568b	0.76694554
57	0x3f3be744	0.7339976
58	0x3f54234a	0.82866347
59	0x3f523492	0.82111466
60	0x3f65280c	0.8951423
61	0x3f44d532	0.7688781
62	0x3f38e1f0	0.72219753
63	0x3f71f4a2	0.94513905
64	0x3e7d3158	0.24725854
65	0x3d8e34c5	0.06943659
66	0x3ef7c245	0.48390403
67	0x3ee9d67f	0.4567146
68	0x3f39f0b7	0.72632927
69	0x3f718b66	0.9435333
70	0x3d8ece37	0.06972926
71	0x3ebb0862	0.36529833
72	0x3e2e40d0	0.17016912
73	0x3e45c59a	0.1931366
74	0x3eec575e	0.46160406
75	0x3f56a7d5	0.8384984
76	0x3f3d2229	0.7388025
77	0x3ecb7279	0.39735773
78	0x3f370181	0.7148667
79	0x3f4e75ee	0.80648696
80	0x3f608150	0.87697315
81	0x3f18cbac	0.5968578
82	0x3f3d0512	0.7383586
83	0x3f220f62	0.6330472
84	0x3f6872cb	0.9080016
85	0x3eebf8a2	0.4608813
86	0x3e86b66d	0.26311055
87	0x3f4f322d	0.8093594
88	0x3d7e4225	0.0620748
89	0x3ee96d89	0.4559138
90	0x3f4e384b	0.80554646
91	0x3f36eda0	0.71456337
92	0x3f63c132	0.8896667
93	0x3f4dbde6	0.8036789
94	0x3f1b020c	0.6055
95	0x3e2436f2	0.16036585
96	0x3e65e61a	0.22451058
97	0x3e6fd51b	0.23421137
98	0x3e263309	0.16230406
99	0x3f0224b1	0.50837237
100	0x3ed03eb7	0.40672848
101	0x3ec3028e	0.38087887
102	0x3f562336	0.8364748
103	0x3f4a5349	0.79033333
104	0x3f3e4793	0.74327964
105	0x3f23c914	0.63978696
106	0x3f4b851f	0.795
107	0x3f5b037b	0.85552186
108	0x3f38389c	0.7196138
109	0x3f4b9cc8	0.79536104
110	0x3f698f45	0.91234237
111	0x3f576219	0.8413406
112	0x3f4c52fe	0.79814136
113	0x3f60f696	0.8787626
114	0x3f40c93e	0.7530707
115	0x3f573e91	0.84079844
116	0x3f3cf521	0.7381154
117	0x3ee8ae43	0.4544545
118	0x3f4436f1	0.76646334
119	0x3f46b475	0.77619106
120	0x3f27a3b2	0.65484154
121	0x3d37bcbb	0.04485772
122	0x3d6129d7	0.054971542
123	0x3e29907e	0.16559026
124	0x3ed0aeb6	0.40758294
125	0x3f4fe133	0.81203
126	0x3f67805e	0.9043025
127	0x3f30d9c3	0.6908228
128	0x3f6a4b13	0.91520804
129	0x3f4f2953	0.8092243
130	0x3f3d2dc6	0.7389797
131	0x3f6118bd	0.8792837
132	0x3f476796	0.77892435
133	0x3f57977d	0.8421553
134	0x3f5809c7	0.8438992
135	0x3f68021c	0.9062822
136	0x3f5f7468	0.87286997
137	0x3d2a80e5	0.04162683
138	0x3f4340f2	0.76270974
139	0x3f06514d	0.52467805
140	0x3ea42a45	0.320635
141	0x3f381106	0.71900976
142	0x3e926e0f	0.28599593
143	0x3f42ea0c	0.7613838
144	0x3f16c7db	0.58898705
145	0x3f6d883e	0.92786014
146	0x3f623978	0.8836894
147	0x3ef00ede	0.46886343
148	0x3f4fb37d	0.8113325
149	0x3f345654	0.70444226
150	0x3f574850	0.84094715
151	0x3f488ce8	0.78340006
152	0x3f451db5	0.76998454
153	0x3f3b7449	0.7322431
154	0x3f3b4fa0	0.73168373
155	0x3e888c29	0.26669434
156	0x3e3c7528	0.18404067
157	0x3e342a6d	0.17594309
158	0x3f588172	0.8457252
159	0x3f162d64	0.5866301
160	0x3ebba9b9	0.36652926
161	0x3f162f94	0.5866635
162	0x3e3ded1b	0.1854748
163	0x3f4f28be	0.8092154
164	0x3eebc782	0.4605065
165	0x3da7b90f	0.08189594
166	0x3f20a792	0.6275569
167	0x3f4c207d	0.79737073
168	0x3f3a18c9	0.7269407
169	0x3f40a8b1	0.752574
170	0x3f17c202	0.5928041
171	0x3f57d796	0.84313333
172	0x3f3fd6a7	0.7493691
173	0x3f58fe49	0.8476301
174	0x3f513fd9	0.8173805
175	0x3f402d9b	0.7506959
176	0x3f100e7f	0.5627212
177	0x3f484dec	0.782439
178	0x3eb7b8ca	0.3588317
179	0x3ec96c42	0.39340407
180	0x3f056c23	0.5211813
181	0x3eb5c162	0.35499102
182	0x3f0dad6f	0.55342764
183	0x3f2ff5ee	0.68734634
184	0x3f1b2322	0.60600483
185	0x3f858c36	1.0433414
186	0x3ff674a0	1.9254341
187	0x3fdb95a2	1.7155039
188	0x3fafb324	1.3726544
189	0x3fc8cdb9	1.5687782
190	0x3ff5b462	1.9195673
191	0x400f9a75	2.2438023
192	0x4024c738	2.5746593
193	0x4024e294	2.5763292
194	0x401b4e3a	2.4266496
195	0x4001114b	2.0166805
196	0x401117c8	2.2670765
197	0x402963f2	2.6467252
198	0x3fdc4c49	1.721078
199	0x3fb7220f	1.4307269
200	0x3f9becac	1.2181602
201	0x3fa9309c	1.321796
202	0x3fb8da52	1.4441626
203	0x3f8625cc	1.0480285
204	0x3ffbbfc2	1.9667895
205	0x400f3865	2.237817
206	0x401b078c	2.4223356
207	0x4004377b	2.0658863
208	0x40270265	2.6095212
209	0x40093550	2.143879
210	0x4037498e	2.8638644
211	0x4015f4ce	2.3430667
212	0x40035d5c	2.0525732
213	0x401b2c47	2.4245775
214	0x40070450	2.1096382
215	0x3fbfa0ae	1.497091
216	0x3ff04a9e	1.8772771
217	0x40394f35	2.8954594
218	0x3ffb2c76	1.9622943
219	0x3fa79e25	1.3095137
220	0x3f29b200	0.6628723
221	0x3f3382db	0.70121545
222	0x3f014888	0.505013
223	0x3f0fdf05	0.56199676
224	0x3fbaa7c4	1.4582448
225	0x3fafafeb	1.3725561
226	0x3fcfad11	1.6224691
227	0x3fb4a00b	1.4111341
228	0x3fee5db1	1.8622342
229	0x40110d43	2.2664344
230	0x402fffc4	2.7499857
231	0x40326f80	2.7880554
232	0x401d70ab	2.4600017
233	0x3ffd819c	1.9805179
234	0x400e727c	2.2257376
235	0x401d5371	2.4582179
236	0x3fb91b38	1.4461432
237	0x3fd5b4ec	1.6695838
238	0x3f87d74b	1.0612577
239	0x3fbe66ab	1.4875082
240	0x3fd07d29	1.6288196
241	0x3fa3d770	1.2800121
242	0x3feab73d	1.833717
243	0x401428c2	2.3149877
244	0x401964b2	2.396771
245	0x3ff8ce9f	1.9438056
246	0x40195020	2.3955154
247	0x3ff5a363	1.9190487
248	0x402cca61	2.6998522
249	0x400ff9bd	2.2496178
250	0x40064a1c	2.0982733
251	0x401a0da4	2.4070826
252	0x4005575c	2.083457
253	0x3fc17dd6	1.5116527
254	0x3fde207f	1.7353667
255	0x40281ef8	2.6268902

range f4 [2648]
0	0x3d566188	0.052339107
1	0x3dd6c89e	0.104874834
2	0x3de8b00d	0.11361704
3	0x3e02f1f7	0.12787615
4	0x3e065311	0.13117625
5	0x3e4f6ee0	0.20257139
6	0x3e2320fc	0.15930551
7	0x3e53b730	0.20675349
8	0x3ddcfb6a	0.10790141
9	0x3e195ac2	0.14976028
10	0x3e1317ef	0.14364599
11	0x3d817a4f	0.06322157
12	0x3e1ae985	0.15128143
13	0x3eabb0b3	0.33533248
14	0x3ead6bbd	0.3387126
15	0x3e83be2e	0.25731033
16	0x3e9a58e3	0.3014594
17	0x3ddddcbc	0.10833117
18	0x3e89ee26	0.26939505
19	0x3e7d1476	0.24714836
20	0x3df1d946	0.1180902
21	0x3da3732c	0.07980952
22	0x3d634068	0.055481344
23	0x3dae079f	0.08497547
24	0x3d90dd5c	0.07073471
25	0x3e13ae10	0.14421868
26	0x3de087e4	0.10963419
27	0x3e624aec	0.22098893
28	0x3d98b64f	0.074566476
29	0x3e5c0768	0.214872
30	0x3d55ab90	0.052165568
31	0x3d93a66e	0.07209478
32	0x3ea140bd	0.31494704
33	0x3da6ce2c	0.08144793
34	0x3e385ca5	0.18004091
35	0x3e7d17d4	0.24716121
36	0x3ecc4aa2	0.3990069
37	0x3e65c867	0.22439729
38	0x3e129bf4	0.14317304
39	0x3e51ab31	0.2047546
40	0x3e22f158	0.15912378
41	0x3e643533	0.22285919
42	0x3e687abd	0.22703071
43	0x3e80944f	0.2511315
44	0x3dbf0402	0.09326936
45	0x3e87dda4	0.26536286
46	0x3e6cb8bd	0.23117347
47	0x3ea6a091	0.32544377
48	0x3ead8e13	0.33897457
49	0x3e4aea81	0.19816019
50	0x3e7e9eca	0.2486526
51	0x3e8dcd9c	0.2769593
52	0x3e3b9855	0.18319829
53	0x3e1ff91d	0.15622373
54	0x3db62145	0.088930644
55	0x3df4bf0b	0.11950501
56	0x3dfab5b8	0.12241691
57	0x3e065d06	0.13121423
58	0x3dbf8c9f	0.09352993
59	0x3df01841	0.11723376
60	0x3d8503f9	0.06494898
61	0x3dbc23c8	0.09186512
62	0x3ddc055d	0.107432105
63	0x3d4ce452	0.05002243
64	0x3e81dd0c	0.25363958
65	0x3daea367	0.0852726
66	0x3e078b43	0.13236718
67	0x3ecb344d	0.3968834
68	0x3e7cd728	0.2469145
69	0x3d7c8aed	0.061655927
70	0x3dcfe337	0.1015076
71	0x3e810be6	0.2520439
72	0x3e4ab83f	0.19796847
73	0x3e7e3f6c	0.24828881
74	0x3e4e086a	0.20120397
75	0x3de02d57	0.10946148
76	0x3e4d144b	0.20027272
77	0x3e29bb85	0.1657544
78	0x3e308930	0.17239833
79	0x3e048e4a	0.12944904
80	0x3de8eafe	0.11372946
81	0x3e32e639	0.17470635
82	0x3e89e732	0.269342
83	0x3e52e505	0.20595177
84	0x3dd6687e	0.10469149
85	0x3ea0600e	0.31323284
86	0x3e9e5e3f	0.3093128
87	0x3e2286ac	0.15871686
88	0x3d9bdc83	0.07610419
89	0x3e9dc162	0.30811602
90	0x3e49324d	0.19648094
91	0x3e648840	0.223176
92	0x3ddf1bea	0.10893996
93	0x3df61065	0.12014846
94	0x3e8a605f	0.2702665
95	0x3e3f1a81	0.18662454
96	0x3e89c16d	0.26905385
97	0x3e8a6a91	0.2703443
98	0x3e49c802	0.19705203
99	0x3eb111e4	0.34583962
100	0x3e944583	0.28959283
101	0x3e6b8a51	0.23001982
102	0x3dd71ac5	0.10503153
103	0x3d9a3b0a	0.07530792
104	0x3df19c5e	0.11797403
105	0x3e95a32b	0.2922605
106	0x3e806a81	0.25081256
107	0x3d57ce54	0.052687004
108	0x3e127d61	0.14305641
109	0x3d7adbde	0.061244838
110	0x3d18541b	0.037189584
111	0x3d29f602	0.041494377
112	0x3d214bae	0.039378814
113	0x3ce216a9	0.027598696
114	0x3d95e2ee	0.07318674
115	0x3d867a3b	0.06566282
116	0x3e24b26a	0.16083685
117	0x3e8cbfc9	0.2749007
118	0x3e7e6e87	0.2484685
119	0x3db8f55f	0.09031176
120	0x3e86656d	0.26249257
121	0x3d4d7d10	0.050168097
122	0x3dcdad09	0.100427695
123	0x3e02340e	0.1271517
124	0x3e8377df	0.25677392
125	0x3e0b6385	0.13612182
126	0x3d9aae30	0.07552755
127	0x3de734e8	0.11289388
128	0x3d9f7172	0.0778531
129	0x3e044807	0.12918101
130	0x3dbb9bab	0.09160551
131	0x3d8723b1	0.065986045
132	0x3dc1cb78	0.09462637
133	0x3d79ca13	0.06098373
134	0x3d808eb3	0.06277218
135	0x3d93b2b5	0.0721182
136	0x3e110f5a	0.14166012
137	0x3db24f4f	0.08706533
138	0x3e3bbce8	0.18333781
139	0x3e45fddc	0.19335121
140	0x3e393001	0.18084718
141	0x3e0c0fae	0.13677856
142	0x3e1fdc2e	0.15611336
143	0x3dc20d87	0.094752364
144	0x3e527987	0.20554172
145	0x3d931222	0.07181193
146	0x3d991bc3	0.07475998
147	0x3e69c240	0.22828007
148	0x3dbcb284	0.09213737
149	0x3e1498e3	0.14511447
150	0x3d67f5be	0.056630842
151	0x3d9d1f82	0.07672025
152	0x3da32b7b	0.079672776
153	0x3de4e317	0.111761265
154	0x3e4750a0	0.1946435
155	0x3e750eda	0.23931447
156	0x3e836ff4	0.2567135
157	0x3e86e70e	0.26348156
158	0x3e52e5a2	0.2059541
159	0x3e74996e	0.23886654
160	0x3e916656	0.2839839
161	0x3e9126a8	0.28349805
162	0x3e849b39	0.25899675
163	0x3daac7bc	0.083388776
164	0x3e9664bf	0.29373738
165	0x3e1d025d	0.15332933
166	0x3e7d3701	0.24728014
167	0x3e1d741a	0.1537632
168	0x3e4e2640	0.20131779
169	0x3e12e6ef	0.14345907
170	0x3e8878b0	0.26654577
171	0x3d837558	0.06418866
172	0x3e09b7a8	0.13448966
173	0x3e020ada	0.12699452
174	0x3d869ac9	0.06572492
175	0x3e1fca2e	0.15604469
176	0x3e9ec054	0.3100611
177	0x3e86843b	0.2627276
178	0x3e79365a	0.2433714
179	0x3e89cec2	0.26915556
180	0x3ea4f521	0.3221827
181	0x3e873981	0.2641106
182	0x3ec699f5	0.38789335
183	0x3e593ece	0.21215364
184	0x3ebe0745	0.3711492
185	0x3dab0850	0.08351195
186	0x3d7d34bb	0.061817866
187	0x3dd400b6	0.10351698
188	0x3eb7f312	0.35927635
189	0x3e4d2e19	0.20037116
190	0x3e64afa9	0.22332634
191	0x3ed16d84	0.40903866
192	0x3e8b184f	0.27166983
193	0x3eb58b15	0.35457674
194	0x3e861ef1	0.2619548
195	0x3e53aad4	0.20670635
196	0x3e337413	0.17524748
197	0x3e198a47	0.14994155
198	0x3db53ad2	0.0884911
199	0x3e2a615e	0.16638705
200	0x3d948f29	0.07253868
201	0x3e210760	0.1572547
202	0x3e093ee4	0.13402897
203	0x3e496971	0.19669129
204	0x3eb8c133	0.360849
205	0x3eeb84ad	0.4599966
206	0x3eb541ca	0.35401756
207	0x3e90bd92	0.2826963
208	0x3e686a90	0.226969
209	0x3e20e5ae	0.15712616
210	0x3de4d631	0.11173666
211	0x3e45d75f	0.19320439
212	0x3e9492f4	0.29018366
213	0x3deee950	0.116655946
214	0x3e08eb67	0.13371049
215	0x3ed797ff	0.4210815
216	0x3e6cf608	0.23140728
217	0x3e10444b	0.14088552
218	0x3dbeded7	0.09319847
219	0x3e3b71a5	0.1830507
220	0x3ddc6f2b	0.10763391
221	0x3df60a5e	0.12013696
222	0x3d05ee9a	0.03269825
223	0x3da864a6	0.08222322
224	0x3d7845cb	0.060613435
225	0x3dc6dd08	0.09710127
226	0x3ece1441	0.40249828
227	0x3e00c0b6	0.12573513
228	0x3e0c5961	0.1370597
229	0x3e980392	0.29690224
230	0x3e3a6e29	0.18206085
231	0x3e81638e	0.25271267
232	0x3e383b3a	0.17991343
233	0x3deb78e8	0.114976704
234	0x3e0580f0	0.13037467
235	0x3dbd7460	0.092507124
236	0x3d981a3f	0.07426881
237	0x3e058cce	0.13041994
238	0x3d8929a5	0.06697396
239	0x3e002bfc	0.12516779
240	0x3dcd76cc	0.10032424
241	0x3e05bc05	0.13060005
242	0x3f1df00c	0.6169441
243	0x3f07c7ae	0.5303906
244	0x3f012ce9	0.5045915
245	0x3ed398ac	0.41327417
246	0x3ea2e42e	0.31814712
247	0x3e3b6df4	0.18303663
248	0x3dbbed24	0.0917609
249	0x3e4538ae	0.19259903
250	0x3e855118	0.26038432
251	0x3e263d1e	0.16234252
252	0x3e8532a4	0.26015198
253	0x3f175086	0.59107244
254	0x3eeba77e	0.46026224
255	0x3e913f31	0.28368524

weight f4 [32, 2648]
0	0xbdb8a7c9	-0.090163775
1	0xba6f3d0a	-0.0009126222
2	0x3c4692b7	0.0121199405
3	0xbd78af27	-0.060713913
4	0xbcb61743	-0.022227889
5	0xbdda0e22	-0.10647227
6	0xbc810f85	-0.01575447
7	0xbda28ac1	-0.079366215
8	0x3d8d8c02	0.0691147
9	0x3d9a1b3d	0.075247265
10	0x3d8b0f78	0.0679006
11	0x3d7299d8	0.059228748
12	0xb96982a5	-0.0002226928
13	0x3c10b0c2	0.008831205
14	0xbd428268	-0.047487646
15	0x3c3606a2	0.01110998
16	0xbd916641	-0.070995815
17	0xbd7cf8e1	-0.061760787
18	0x3c2f0e81	0.01068461
19	0x3d68a762	0.056800254
20	0x3c7059ef	0.014669879
21	0x3dfadb6e	0.12248884
22	0x3cd7c2a0	0.026337922
23	0xbd318ffd	-0.04335021
24	0xbd479850	-0.04872924
25	0x3da63fae	0.08117615
26	0xbc9512f9	-0.018197523
27	0x3d74e6d4	0.059790447
28	0x3de2708c	0.11056623
29	0xbc4629bb	-0.01209491
30	0x3df0a7f8	0.117507875
31	0xbe1971d6	-0.14984831
32	0xbce56c8d	-0.028005863
33	0xbc50c3cc	-0.012741994
34	0x3dceeb55	0.1010348
35	0xbe358ceb	-0.17729537
36	0xbdde70e0	-0.10861373
37	0x3d3f103c	0.04664634
38	0xbc9aafdd	-0.018882686
39	0x3e23ff2c	0.16015309
40	0x3d57e4aa	0.052708305
41	0x3db8918d	0.090121366
42	0xbd03a610	-0.03214079
43	0x3d090c22	0.033458836
44	0x3e155d59	0.1458639
45	0xbd8ad7ee	-0.067794666
46	0xbc182796	-0.009286782
47	0xbdce496a	-0.10072596
48	0xbdb7b4d1	-0.08970035
49	0x3d903167	0.07040673
50	0xbdc20fb0	-0.094756484
51	0x3de25b6e	0.11052595
52	0x3ce8bbc0	0.028409839
53	0xbdafa6f4	-0.08576766
54	0x3ce352df	0.027749477
55	0xbdf239da	-0.118274406
56	0xbc2938a5	-0.0103284465
57	0x3cd6ea3a	0.026234735
58	0xbdd9e15e	-0.106386885
59	0x3e166f85	0.14690979
60	0xbc8cb29f	-0.017175017
61	0x3c15ee62	0.009151073
62	0xbcced011	-0.025245698
63	0xbc2d781f	-0.010587721
64	0xbc25cd59	-0.0101197595
65	0x3d1952aa	0.03743235
66	0x3d6b1774	0.057395414
67	0x3e3a9aaa	0.18223062
68	0x3d3c2e74	0.04594274
69	0xbce2ef92	-0.027702127
70	0xbd0aab1f	-0.0338546
71	0x3d5a07ad	0.053229976
72	0xbd96add4	-0.07357374
73	0x3d4563f6	0.048191033
74	0xbde60a37	-0.11232417
75	0x3c80529f	0.015664397
76	0xbe010578	-0.12599742
77	0x3dbbca95	0.09169499
78	0xbdeba8cc	-0.11506805
79	0x3d56b04f	0.052414235
80	0xbd960637	-0.07325404
81	0x3c8a9e37	0.016921146
82	0xbd87ce41	-0.06631137
83	0xbdc211f9	-0.09476084
84	0x3deec6eb	0.11659034
85	0xbcbafd89	-0.022825973
86	0xbcf97509	-0.030451315
87	0x3d849673	0.064740084
88	0x3d58b2cb	0.052904885
89	0xbd71d625	-0.059042115
90	0x3e019d6a	0.12657705
91	0xbd2723e9	-0.04080573
92	0x3d2214c8	0.0395706
93	0x3b07f298	0.0020743962
94	0x3cac239b	0.021013072
95	0xbc96ff38	-0.018432245
96	0x3d857145	0.06515745
97	0x3de2c239	0.11072201
98	0x3dc40ba0	0.0957253
99	0x3ce6b30c	0.028161548
100	0x3d454820	0.048164487
101	0x3d9dad7e	0.07699107
102	0xbb5a21da	-0.0033284337
103	0xbd3b0dde	-0.04566752
104	0x3d891c1f	0.06694817
105	0x3ce6538f	0.028116016
106	0x3d40e5b4	0.047094062
107	0xbd65a7a4	-0.056068078
108	0x3d2e67ba	0.04257939
109	0x3dcd1fac	0.100158066
110	0xbd8b520d	-0.06802759
111	0xbd8ddfb6	-0.06927435
112	0x3d52a27c	0.05142449
113	0x3ced390a	0.028957862
114	0x3de85734	0.11344758
115	0xbda7eb24	-0.081991464
116	0x3d16882d	0.03675096
117	0xbd5b7722	-0.05358041
118	0x3b4d792b	0.003135274
119	0xbd558314	-0.05212696
120	0x3d81c81e	0.063369974
121	0x3c477c90	0.012175694
122	0x3d2c0af1	0.042002622
123	0x3d827982	0.06370832
124	0xbd3625b7	-0.04446956
125	0xbd108a01	-0.03528786
126	0xbd5af099	-0.053452108
127	0x3dd10835	0.102066435
128	0x3c9dc1c2	0.01925743
129	0x3e24bb88	0.16087162
130	0x3de79ff4	0.113098055
131	0xbd5ca845	-0.05387141
132	0x3e20dd10	0.15709329
133	0x3c8aa2c3	0.016923314
134	0xbda2ff77	-0.07958882
135	0x3d4fcffb	0.050735455
136	0xbd2151d3	-0.039384674
137	0xbc6bd6a6	-0.014394438
138	0xbd8ae5a1	-0.067820795
139	0xbc07da25	-0.008291756
140	0xbc863a63	-0.016385263
141	0xbd58aee4	-0.052901164
142	0x3d765a31	0.060144607
143	0x3d9a96b9	0.07548279
144	0xbb914c6a	-0.004434158
145	0xbca17a68	-0.019711688
146	0x3d809bf0	0.06279743
147	0xbdeca587	-0.11555009
148	0xbbf6822d	-0.0075228424
149	0xbe6ae07f	-0.22937201
150	0x3e1f6e36	0.15569386
151	0xbc8e265e	-0.01735228
152	0x3d098686	0.033575557
153	0xbdb65cc1	-0.0890441
154	0x3dc8bbcd	0.09801445
155	0x3d2e62ba	0.04257462
156	0x3dd1e1eb	0.102481686
157	0x3e0c79bb	0.13718311
158	0x3dfd8def	0.12380587
159	0x3c6ecb3a	0.01457482
160	0x3d5cb69b	0.053885084
161	0x3e133b48	0.14378083
162	0x3b93e5ce	0.004513479
163	0xbeb23a28	-0.34809995
164	0xbd822fdc	-0.06356785
165	0x3d0b085a	0.03394351
166	0xbc00e373	-0.007866728
167	0xbdb60563	-0.08887746
168	0x3cfdaad5	0.030965248
169	0xbd1d00e3	-0.038330924
170	0xbc7f1c8e	-0.015570773
171	0x3d8e0085	0.06933693
172	0x3caef3e1	0.021356525
173	0x3caccc8c	0.02109363
174	0xbdb09cd8	-0.086236656
175	0x3e19181d	0.14950605
176	0xbd409d4b	-0.047025006
177	0x3d94d7b8	0.072677076
178	0x3d599f58	0.053130478
179	0xbddfd972	-0.10930146
180	0xbd96dcca	-0.07366331
181	0xbe1926d4	-0.14956218
182	0xbde1316f	-0.10995757
183	0xbd2bb912	-0.041924544
184	0xbbd88a8e	-0.006608314
185	0x3d83963c	0.06425139
186	0xbe15a1db	-0.14612524
187	0x3d8f043e	0.06983231
188	0xbb4e8ae6	-0.0031515895
189	0xbcc1d18e	-0.023659494
190	0x3d189aa0	0.037256837
191	0x3d4347ef	0.047676023
192	0x3aa9b730	0.0012948271
193	0x3d241b71	0.040065233
194	0x3cca1cce	0.024671938
195	0xbd0b9a89	-0.034082923
196	0x3d150f06	0.03639128
197	0xbc5e3b0d	-0.0135638835
198	0x3d627969	0.055291567
199	0xbc24d811	-0.01006128
200	0x39f21a74	0.00046177546
201	0x3d4120e0	0.047150493
202	0xbd890e04	-0.066921264
203	0x3d5eac75	0.054363687
204	0xbc61cd38	-0.013781838
205	0x3c9d40f7	0.019196017
206	0x3cdcdd50	0.026960999
207	0x3cdcf970	0.02697441
208	0xbc589380	-0.0132187605
209	0x3ca9b29d	0.020715052
210	0x3ccd44d7	0.02505724
211	0x3cf22441	0.029558303
212	0x3c9125dc	0.017718248
213	0x3de8d016	0.11367814
214	0x3e3d034d	0.1845829
215	0xbbcff837	-0.006346728
216	0x3c7a85f2	0.015290724
217	0xba8f3e72	-0.0010928644
218	0x3cc506bc	0.024051063
219	0x3ce742ba	0.02823006
220	0x3da8af02	0.08236505
221	0xbdc84719	-0.09779186
222	0xbdf8eb6f	-0.121542804
223	0x3dce043d	0.10059402
224	0xbd796499	-0.060886953
225	0x3dd710bd	0.105012394
226	0xbb360f75	-0.002778021
227	0xbd10331b	-0.035204988
228	0x3d898cf5	0.067163385
229	0x3cd499d3	0.025952255
230	0xbd590043	-0.052978765
231	0x3d796266	0.060884856
232	0x3d4b1acf	0.049586114
233	0xbd066467	-0.032810595
234	0x3d5e6831	0.054298583
235	0xbc268533	-0.010163593
236	0xbd02a072	-0.031891294
237	0xbc7151aa	-0.014728943
238	0xbdbb22e9	-0.09137518
239	0xbca57009	-0.020195024
240	0xbd7bcc50	-0.061474144
241	0x3d3764cf	0.044773873
242	0xbc7668f9	-0.015039676
243	0x3cfdf9d6	0.03100292
244	0x3ced5e27	0.02897556
245	0x3cea0270	0.028565615
246	0xbcf63337	-0.030053718
247	0xbbe0ae6a	-0.0068567293
248	0x3d48595d	0.04891335
249	0x3d3892a7	0.045061734
250	0x3d5b20e4	0.053498164
251	0x3da4ed94	0.08053127
252	0x3ce4440a	0.027864475
253	0xbb4f9c6e	-0.0031678933
254	0x3c871974	0.01649163
255	0x3ab0c16b	0.0013485377

bias f4 [32]
0	0xbcafa377	-0.02144025
1	0xbcc55680	-0.024089098
2	0x3d4a8267	0.049440768
3	0xbd005a08	-0.03133586
4	0x3e42c09e	0.1901879
5	0x3e49d74c	0.19711035
6	0x3e947c4d	0.29001084
7	0x3e099a45	0.13437755
8	0x3c8174cc	0.015802763
9	0x3e4ba1bf	0.1988592
10	0x3e2c66ce	0.16836092
11	0x3e653f97	0.22387539
12	0x3e2cbe54	0.1686948
13	0x3e4ced5f	0.20012425
14	0xbd7d0144	-0.061768785
15	0x3d872fcd	0.06600914
16	0x3f4e9600	0.8069763
17	0x3e2aade3	0.16667895
18	0x3cd03f03	0.025420671
19	0x3f376fcd	0.7165497
20	0x3e34c9f7	0.17655168
21	0x3e87df63	0.26537618
22	0x3e5b4ad6	0.21415266
23	0x3eb7d2d8	0.3590305
24	0x3ceca3db	0.028886726
25	0x3e3620a7	0.17785893
26	0x3e451902	0.19247821
27	0xbd1157f5	-0.035484273
28	0x3e7f6ff1	0.24945046
29	0x3ce0ce6e	0.027442183
30	0x3e34a36a	0.17640463
31	0xbcf1045f	-0.02942103

weight f4 [16, 32]
0	0x3e9338e3	0.2875434
1	0xbe5a952c	-0.21345967
2	0xbd951a9e	-0.072804675
3	0xbe51c806	-0.20486459
4	0x3da118c4	0.07866052
5	0xbdf9dcc6	-0.12200312
6	0x3c633cde	0.013869492
7	0x3e0e48c6	0.13894948
8	0x3dcb197a	0.09916969
9	0x3de83281	0.11337758
10	0xbd92fa27	-0.07176619
11	0xbdf77717	-0.120832615
12	0x3d1d1e86	0.038359188
13	0xbd846bfd	-0.0646591
14	0xbe820564	-0.25394738
15	0xbc630f02	-0.013858559
16	0x3e12b48d	0.14326687
17	0xbe07263f	-0.13198183
18	0x3deffa1a	0.11717625
19	0x3e83150b	0.25601992
20	0x3c9da04e	0.019241478
21	0x3e8a58ea	0.2702096
22	0xbd92e5f8	-0.07172769
23	0x3e472bef	0.19450353
24	0x3e1667f8	0.14688098
25	0xbd502eaa	-0.050825752
26	0xbdba8850	-0.09108031
27	0x3e578bf9	0.21049489
28	0x3cd9b661	0.026576223
29	0x3d80654c	0.06269321
30	0xbd8b749e	-0.06809352
31	0x3d9d9866	0.07695083
32	0xbd18f5d8	-0.03734383
33	0xbd4ddc59	-0.050258968
34	0xbcc00492	-0.02343968
35	0xbdf4837a	-0.1193914
36	0xbd3218aa	-0.043480553
37	0xbd9cc931	-0.07655562
38	0xbe51ee56	-0.20501074
39	0x3bde5e54	0.006786147
40	0xbdb25cec	-0.0870913
41	0x3dbbdcc0	0.09172964
42	0xbc15352c	-0.009106915
43	0xbdb49da6	-0.088191316
44	0x3d53584d	0.051597882
45	0x3db58e46	0.08865027
46	0xbe349bcf	-0.17637561
47	0xbe7df14e	-0.24799082
48	0xbd776ea6	-0.060408257
49	0xbe123c17	-0.14280735
50	0x3d8a4078	0.06750578
51	0xbca6907a	-0.020332564
52	0x3ccbf712	0.024898086
53	0xbd01702c	-0.031601116
54	0xbd64e8ae	-0.055885963
55	0x3c387b84	0.011259917
56	0x3e53e6c8	0.20693505
57	0xbd487182	-0.048936374
58	0xbd19cb91	-0.03754765
59	0xbdad1c92	-0.08452715
60	0xbdb80ba6	-0.08986597
61	0xbe03e60d	-0.12880726
62	0xbb1dd06b	-0.0024080526
63	0x3e3c97e7	0.18417321
64	0x3dec65b1	0.115428336
65	0xbd011e80	-0.031523228
66	0xbda8773a	-0.08225866
67	0xbe038581	-0.12843896
68	0x3d9b7f1c	0.075926036
69	0xbc296c43	-0.010340753
70	0x3d566b08	0.052348167
71	0xbd55549d	-0.052082647
72	0x3e37731a	0.17915002
73	0x3d178f53	0.03700192
74	0x3b8f945d	0.0043817
75	0x3dbffca0	0.09374356
76	0xbd502605	-0.05081751
77	0x3e1b501c	0.15167278
78	0xbe0f4576	-0.13991341
79	0xbdbed6a2	-0.09318282
80	0x3e06f684	0.13179976
81	0xbd0dd5e9	-0.03462783
82	0x3e54ae16	0.20769534
83	0x3e5e86b0	0.21731067
84	0x3d2e3196	0.042527758
85	0x3bfa5652	0.0076396847
86	0xbd0c57be	-0.034263365
87	0x3dea865d	0.11451409
88	0x3d8878cc	0.06663665
89	0xbd2d3d43	-0.04229475
90	0x3dc4413d	0.09582756
91	0x3e5798db	0.21054403
92	0x3d02ebff	0.031963345
93	0x3e241ace	0.1602585
94	0x3c5ae8da	0.01336118
95	0x3df2ab81	0.11849118
96	0x3c34c78c	0.011033904
97	0x3dba83c8	0.091071665
98	0xbf04af5a	-0.51830065
99	0xbb67335e	-0.003527842
100	0xbe4fc633	-0.20290451
101	0xbeeceaa2	-0.4627276
102	0xbf02795d	-0.50966436
103	0xbccb7fee	-0.024841275
104	0x3c2b9966	0.010473585
105	0xbec038c9	-0.37543324
106	0xbe091f9e	-0.13390967
107	0xbe34774f	-0.17623638
108	0xbe8b2144	-0.27173817
109	0xbeb38d69	-0.35068825
110	0x3d9a565d	0.07536004
111	0x3c0efa5b	0.008726682
112	0x3e30e8b5	0.1727627
113	0xbe3b0f4e	-0.18267557
114	0x3da74335	0.081671156
115	0x3dc480a1	0.095948465
116	0xbeb8a475	-0.3606297
117	0xbf401237	-0.75027794
118	0xbefae7df	-0.4900503
119	0xbe28a1a9	-0.16467918
120	0x3e700d4f	0.23442577
121	0xbe82c822	-0.25543314
122	0xbed422cd	-0.414328
123	0x3db91326	0.090368554
124	0xbdd35b56	-0.10320155
125	0x3e525971	0.20541932
126	0xbe66e5d6	-0.22548613
127	0x3dfd739a	0.12375565
128	0x3e31f790	0.17379594
129	0xbeadc71f	-0.3394098
130	0x3d743355	0.059619267
131	0xbeb611e2	-0.35560519
132	0xbc9740e6	-0.018463563
133	0xbdc070fd	-0.09396551
134	0x3c40f452	0.0117770005
135	0xbcc9996e	-0.024609294
136	0xbe8d8331	-0.27639154
137	0x3e00106c	0.12506264
138	0xbcfee857	-0.031116648
139	0x3dd691d2	0.10477032
140	0xbdf16a46	-0.11787848
141	0x3c0f9d92	0.008765595
142	0xbec8fdae	-0.39256042
143	0x3d883362	0.066504255
144	0xbdce48c7	-0.10072475
145	0xbd06ca11	-0.03290755
146	0xbed4dc53	-0.41574344
147	0xbd3cecdd	-0.046124328
148	0x3cf985b8	0.03045927
149	0x3cc67065	0.024223516
150	0x3d974122	0.0738547
151	0x3de731ff	0.11288833
152	0x3c6219c1	0.0138000855
153	0x3dd40dd4	0.103542
154	0xbd582220	-0.05276692
155	0xbed3a313	-0.41335353
156	0xbdbb30d4	-0.091401726
157	0xbe87620b	-0.26441988
158	0xbd56769a	-0.0523592
159	0xbe95118c	-0.2911495
160	0xbf11868d	-0.56845933
161	0xbeb532bd	-0.35390273
162	0xbeee6d60	-0.46567822
163	0xbee00174	-0.4375111
164	0xbe90a20f	-0.2824864
165	0xbeec0ab2	-0.4610191
166	0xbe907859	-0.28216818
167	0xbe918366	-0.28420562
168	0xbed2e392	-0.41189247
169	0xbe325dba	-0.17418566
170	0xbec3cc58	-0.3824184
171	0xbd841e6d	-0.06451116
172	0xbee2831b	-0.4424065
173	0xbe73eda3	-0.2382112
174	0xbec8e083	-0.3923379
175	0xbe93fed0	-0.28905344
176	0xbedf9b3e	-0.43673128
177	0xbefe8a20	-0.49714756
178	0xbeddb550	-0.43302393
179	0xbf467366	-0.77519834
180	0xbe5184ad	-0.20460768
181	0xbf57fd79	-0.84371144
182	0xbeee3118	-0.4652183
183	0xbead0c26	-0.3379833
184	0xbee5f27e	-0.4491157
185	0xbea71777	-0.3263509
186	0xbeae376f	-0.34026667
187	0xbeca5054	-0.3951441
188	0xbe7f205d	-0.2491469
189	0xbead9c23	-0.33908185
190	0xbe81889a	-0.2529953
191	0xbf10652e	-0.5640439
192	0xbd9269fc	-0.07149121
193	0xbda7ab44	-0.08186963
194	0xbd9d376c	-0.076765865
195	0xbe07e885	-0.13272293
196	0x3d4a2f64	0.0493616
197	0xbd2fd6c7	-0.042929437
198	0x3e02dc86	0.12779436
199	0x3dffedca	0.124965265
200	0xbb3b3b92	-0.0028569442
201	0x3d0dc612	0.034612723
202	0x3e376d77	0.17912851
203	0x3d20dcee	0.039273195
204	0x3d928fa3	0.07156303
205	0x3dfe59a4	0.12419441
206	0xbdd3fa28	-0.10350448
207	0xbd25653b	-0.040379744
208	0xbdc18c23	-0.09450557
209	0xbbd4a382	-0.006489218
210	0xbbcc88b9	-0.0062418845
211	0xbf5ead11	-0.8698283
212	0x3dd6ff75	0.10497943
213	0xbdd66e5c	-0.10470268
214	0x3d4ecd40	0.05048871
215	0xbd488a85	-0.048960228
216	0xbc03d03c	-0.008045252
217	0x3c0888a3	0.008333358
218	0x3cdbb1b1	0.026818128
219	0xbd962c03	-0.07332613
220	0x3da398c2	0.079881206
221	0x3d34d1d8	0.044145435
222	0x3c803114	0.015648402
223	0x3cb11707	0.021617426
224	0x3dd450cc	0.10366973
225	0xbdcc943c	-0.09989211
226	0xbc2a695c	-0.010401096
227	0xbddd8f14	-0.108183056
228	0x3e231d55	0.15929158
229	0x3ea8652f	0.32889697
230	0x3e8123ee	0.25222725
231	0x3e0b0e9a	0.13579789
232	0xbdc8bd7f	-0.098017685
233	0x3dbfbc24	0.09362057
234	0x3e3df67b	0.18551056
235	0x3eb5cb7b	0.35506806
236	0x3e1a0daf	0.15044282
237	0x3e97b1ed	0.29627934
238	0xbdae1b06	-0.08501248
239	0xbe40cf93	-0.18829183
240	0xbef49eef	-0.47777507
241	0x3eae2639	0.34013537
242	0xbdd2d631	-0.1029476
243	0xbf3f139f	-0.74639314
244	0x3dde2b1c	0.10848066
245	0xbe81d2f7	-0.25356266
246	0x3e72651e	0.23671386
247	0xbec2b65b	-0.3802975
248	0x3e22a3c9	0.15882792
249	0x3eaba223	0.33522138
250	0x3e0e2f84	0.13885313
251	0xbdd8686b	-0.10566791
252	0x3e8d2ae9	0.275718
253	0xbd0059c6	-0.031335615
254	0x3e9fe2cf	0.3122773
255	0xbdd40aa9	-0.10353596

bias f4 [16]
0	0xbde1720e	-0.11008082
1	0x3e0fbcde	0.14036891
2	0xbb8fb9f8	-0.004386183
3	0xbe368bed	-0.17826815
4	0xbe4baa2b	-0.19889133
5	0xbf01ee1d	-0.5075396
6	0xbee4f866	-0.44720763
7	0x3eb8a134	0.36060488
8	0xbebb67a5	-0.36602512
9	0x3e21da6e	0.1580598
10	0xbe97c0e7	-0.2963936
11	0x3eed4207	0.46339437
12	0x3e86b86a	0.26312572
13	0x3e07b727	0.13253461
14	0x3d529f4e	0.051421456
15	0x3f316ece	0.693097

weight f4 [8, 16]
0	0xbe74913b	-0.23883526
1	0xbe496c80	-0.19670296
2	0xbf0e04f1	-0.5547629
3	0xbde58d25	-0.11208562
4	0xbf3a2c50	-0.72723866
5	0x3f51b820	0.8192158
6	0x3f899a84	1.075028
7	0xbf67af54	-0.90501904
8	0xbc5b22e9	-0.013375022
9	0xbf356fb5	-0.70873576
10	0xbc2d1009	-0.010562905
11	0xbf832a33	-1.0247253
12	0xbf224a0b	-0.6339423
13	0xbf709341	-0.9397469
14	0x3e8cf0c8	0.27527452
15	0x3d813558	0.06309003
16	0xbf19fc0c	-0.6015022
17	0xbf5c7ac1	-0.8612481
18	0xbf098940	-0.5372505
19	0x3e9145c8	0.2837355
20	0xbfc8b929	-1.5681506
21	0x3efae678	0.4900396
22	0x3ec608d5	0.38678613
23	0xbf147d90	-0.58004093
24	0x3f09300d	0.53588945
25	0xbebdb77a	-0.37054044
26	0x3f0fc93c	0.56166434
27	0xbf0fc1ca	-0.56155074
28	0xbdd92b0b	-0.10603913
29	0xbd88031d	-0.06641219
30	0xbe236bf7	-0.15959154
31	0xbdab19b5	-0.083545126
32	0xbc952c8e	-0.018209722
33	0x3dcb3ef3	0.09924116
34	0xbc93a535	-0.018023113
35	0xbf5106db	-0.81651086
36	0xbc8371c9	-0.016045468
37	0xbe32c16c	-0.17456597
38	0x3debd17b	0.115145646
39	0xbd5ece2f	-0.05439585
40	0xbf9719c7	-1.1804742
41	0xbdb0f060	-0.08639598
42	0xbf4c9483	-0.7991411
43	0xbe0f52d7	-0.13996445
44	0xbb2c0b04	-0.0026251683
45	0xbc258db5	-0.010104586
46	0xbe975284	-0.29555142
47	0xbe7be701	-0.2459984
48	0x3a0c43ba	0.0005350668
49	0x3b42c5c7	0.0029719935
50	0xbcb3af1e	-0.021934088
51	0x3dacf16b	0.08444484
52	0x3d2f462e	0.042791538
53	0x3d991360	0.074743986
54	0x3f03b58c	0.51448894
55	0xbe5fbadc	-0.21848625
56	0xbd97a7bb	-0.07405039
57	0xbeb438be	-0.3519954
58	0xb7492cc0	-1.1990953e-05
59	0xbf1eb576	-0.6199564
60	0xbf1da409	-0.6157842
61	0xbf07f49d	-0.53107625
62	0x3d9ea4bc	0.07746264
63	0xbe48d339	-0.19611825
64	0xbd12ce4a	-0.035841264
65	0x3daa2f25	0.08309773
66	0xbdd0220a	-0.101627424
67	0x3e468514	0.19386703
68	0x3d07d598	0.033162683
69	0x3f295576	0.6614603
70	0xbe0ebd39	-0.1393937
71	0x3d371874	0.044701055
72	0xbdc87544	-0.09787992
73	0x3cf369e7	0.029713584
74	0x3e8c225e	0.2736997
75	0x3d93dcd8	0.07219857
76	0x3d201f34	0.039092258
77	0x3d021530	0.031758487
78	0x3ea15dc8	0.31516862
79	0x3ed01249	0.4063895
80	0xbce98025	-0.028503487
81	0x3dd637ac	0.10459837
82	0xbbff5d5a	-0.007793111
83	0x3dfa3d82	0.12218763
84	0x3daef04d	0.085419275
85	0x3de6759d	0.11252902
86	0x3dc4aca9	0.09603245
87	0xbe933dd5	-0.28758112
88	0x3e60e6f3	0.219631
89	0xbdde7571	-0.10862244
90	0x3e8a68a7	0.27032968
91	0xbe1d0b7a	-0.15336409
92	0x3e258c6b	0.16166846
93	0xbe8f8f3a	-0.2803896
94	0xbecd483a	-0.40094167
95	0x3c555392	0.013020413
96	0xbd7e14e0	-0.062031627
97	0xbe4017d2	-0.18759087
98	0xbdbd00f7	-0.092287
99	0x3b857368	0.0040725954
100	0x3b672961	0.0035272466
101	0xbbd0b908	-0.0063697137
102	0x3e60a7a3	0.21938948
103	0xbe58f52b	-0.21187274
104	0xbd04fb51	-0.032466237
105	0x3e4a06f9	0.19729222
106	0x3df4a703	0.119459175
107	0xbc251340	-0.01007539
108	0xbe54ec6d	-0.20793314
109	0xbe181327	-0.14851056
110	0x3ce8ad16	0.028402846
111	0xbc529511	-0.012852923
112	0xbc517b8b	-0.012785803
113	0xbf281af4	-0.6566613
114	0xbc9fc4fc	-0.01950311
115	0xbd8949ac	-0.06703505
116	0xbe808229	-0.25099304
117	0x3d5f8be2	0.054576762
118	0x3de5eafa	0.11226459
119	0xbf35c43a	-0.7100254
120	0xbc58c39b	-0.01323023
121	0xbe5eaaf3	-0.217449
122	0x3e350bbe	0.1768026
123	0xbe127d82	-0.1430569
124	0xbde8d9c5	-0.11369661
125	0xbf2fd908	-0.6869054
126	0xbe496526	-0.19667491
127	0xbe86df89	-0.2634242

bias f4 [8]
0	0x3d932114	0.071840435
1	0xbec33333	-0.38125
2	0x3f8d90fa	1.1059868
3	0x3f016f28	0.50560236
4	0x3f48a8d9	0.7838264
5	0x3f371b8c	0.7152641
6	0x3f03acc9	0.51435524
7	0xbee821b6	-0.4533822

weight f4 [1, 8]
0	0x3d92add1	0.07162059
1	0x3d8eb015	0.06967179
2	0xbc472df4	-0.012156952
3	0xbb1fcb7e	-0.0024382765
4	0x3c9207fc	0.017826073
5	0x3c471ce2	0.012152882
6	0x3e6eec6a	0.23332372
7	0xbd4200b8	-0.047363967

weight f4 [1, 8]
0	0x3b7ba93a	0.0038400427
1	0x3d8c6d13	0.06856742
2	0xbcd1bbb2	-0.025602195
3	0xbd90763a	-0.070538
4	0xbc838a28	-0.016057089
5	0xbe3299d7	-0.17441498
6	0xbedf978e	-0.43670315
7	0x3e004f2d	0.12530203

weight f4 [4, 1]
0	0x3fa3a866	1.2785766
1	0x3fa37822	1.2771037
2	0xc087cbd4	-4.2436314
3	0x3f6fccee	0.9367207

bias f4 [4]
0	0x3f90a1d2	1.1299384
1	0x3f0797d0	0.5296602
2	0x3fe1ce63	1.7641109
3	0x3f64c8ec	0.8936908

weight f4 [8, 4]
0	0xbf470c21	-0.7775288
1	0xbf728214	-0.94729733
2	0x406d0541	3.7034457
3	0xbea099a4	-0.31367218
4	0xbeb9814d	-0.3623146
5	0xbf212a99	-0.62955624
6	0x40001ed1	2.001881
7	0xbe5aacc4	-0.21354967
8	0xbf44b043	-0.76831454
9	0xbf6fe260	-0.93704796
10	0x407844aa	3.879191
11	0xbefd3eb9	-0.49461916
12	0x3e2a5e7a	0.16637602
13	0xbc2492c4	-0.010044757
14	0xbe24dea4	-0.16100556
15	0x3f2fbd05	0.68647796
16	0x3f65dcca	0.8979002
17	0x3f21ccd6	0.6320318
18	0xbf1dae93	-0.61594504
19	0x3f6e8845	0.9317668
20	0x3f826c69	1.0189334
21	0x3f3be880	0.7340164
22	0xbf0bd0de	-0.5461558
23	0x3f6fef50	0.93724537
24	0x3d4ed420	0.050495267
25	0x3f1c8e85	0.6115497
26	0xbd0624c1	-0.032749895
27	0xbe25e39d	-0.16200109
28	0xbf3ef18f	-0.7458734
29	0xbf529195	-0.8225339
30	0x40778e09	3.8680441
31	0xbf00d7a5	-0.5032905

bias f4 [8]
0	0x3fc62680	1.5480499
1	0x3fca8958	1.5823164
2	0x3ffb6c02	1.9642336
3	0x3fb6d598	1.4283934
4	0x3c0b0d0d	0.008486998
5	0xbadce852	-0.0016853905
6	0x3ba4b310	0.0050262287
7	0x3fc2d1c7	1.5220269

weight f4 [2648, 8]
0	0xbe32fb1c	-0.17478603
1	0x3c7ad946	0.015310591
2	0xbe23aeb8	-0.15984619
3	0x3dca355d	0.098734595
4	0xbc8f16e0	-0.017466962
5	0xbc71f874	-0.0147687085
6	0xbd3b0ba6	-0.045665406
7	0xbe0d4e4f	-0.13799404
8	0xbba3a2f5	-0.004993791
9	0xbbae0e4e	-0.005311764
10	0x3a45420d	0.0007524796
11	0x3a4ca0ba	0.00078059325
12	0xbd013a18	-0.031549543
13	0xbce4afb1	-0.027915807
14	0xbddd894b	-0.10817202
15	0xba90b9fc	-0.0011041756
16	0x3cbb5d2f	0.022871582
17	0xbd869bfa	-0.06572719
18	0x3a6623ea	0.00087791553
19	0x3decd768	0.11564523
20	0xbcc6117b	-0.024178257
21	0xbccd94b2	-0.025095318
22	0x3cd0f617	0.02550797
23	0x3aed497e	0.0018103567
24	0x3b05dfed	0.002042766
25	0x3a7c1239	0.00096157525
26	0x3b76daf2	0.0037667123
27	0xbe89caad	-0.26912442
28	0xbf159b81	-0.58440405
29	0xbf44432a	-0.76664984
30	0xbea92c42	-0.3304158
31	0x39aac84f	0.00032574168
32	0x3b2707c8	0.0025486816
33	0xba5d4353	-0.0008440513
34	0x3a7d118c	0.0009653799
35	0xbe1394cc	-0.1441223
36	0xbe9e2b34	-0.30892336
37	0xbefb5c5a	-0.49093896
38	0xbe5f70fb	-0.21820442
39	0x3b0c1fa2	0.002138116
40	0x3b92fe56	0.0044858856
41	0x3c159a9f	0.009131103
42	0x3b7828e9	0.0037866181
43	0xbf08f9d0	-0.53506184
44	0xbe6ccfdd	-0.23126169
45	0xbea42bed	-0.32064763
46	0xbe554bf2	-0.20829752
47	0x3b009598	0.0019620415
48	0xb98deda2	-0.00027070666
49	0xbbadbb36	-0.0053018583
50	0xb9c555ec	-0.00037638785
51	0xbd6e553f	-0.058186766
52	0xbebfdc0a	-0.37472564
53	0xbf9e2ed3	-1.235804
54	0xbedabd85	-0.42722717
55	0xba56f487	-0.00081998896
56	0xbc242f9a	-0.010021115
57	0xbfd37c39	-1.6522285
58	0xbcfbbd62	-0.030729953
59	0x3e5c51d3	0.21515588
60	0xbca7c205	-0.020478258
61	0xbca84f11	-0.020545514
62	0x3b7f8581	0.0038989487
63	0xbc3824c5	-0.011239235
64	0xba69ac99	-0.00089139637
65	0xbb716817	-0.0036835724
66	0xba9ed50a	-0.0012117934
67	0xbd8658c8	-0.065599024
68	0xbf2f7146	-0.68532217
69	0xbfa4eb59	-1.2884322
70	0xbfc04fb0	-1.5024319
71	0xba919c32	-0.0011109172
72	0xbe19192f	-0.14951013
73	0xbf60e8ca	-0.8785521
74	0xbe8fe29c	-0.28102577
75	0x3e1f6e63	0.15569453
76	0xbcba7a08	-0.022763267
77	0xbcb697a1	-0.0222891
78	0x3b955aee	0.004557959
79	0xbd4999bb	-0.049218874
80	0xbb3555e0	-0.0027669594
81	0xbbeee286	-0.0072901873
82	0xbacf403e	-0.0015811992
83	0xbdd64389	-0.104621
84	0xbf09d5b3	-0.53841704
85	0xbfa6f159	-1.3042403
86	0xbed636ab	-0.41838583
87	0xbad25e48	-0.0016049827
88	0x39d0b124	0.00039804832
89	0xbc9b1100	-0.018929005
90	0xbab54ae6	-0.0013831526
91	0xbfa7d3c0	-1.3111496
92	0xbdb87346	-0.09006362
93	0xbe879a4c	-0.26484907
94	0xbd3e766c	-0.046499655
95	0xbbcebb1c	-0.0063089263
96	0xbebecd01	-0.3726578
97	0xbe5ce150	-0.21570325
98	0xbef0ea91	-0.4705396
99	0x3a1b2da6	0.0005919583
100	0xbc41a081	-0.011818052
101	0xbc23cf37	-0.009998134
102	0xbcc93875	-0.024563054
103	0xbe9bb53f	-0.30411717
104	0x3a0203b5	0.0004959659
105	0xbb4cffdb	-0.0031280431
106	0x3a8e3131	0.00108484
107	0xbe00a31c	-0.12562221
108	0xbfcda9cf	-1.6067446
109	0xbf6c510f	-0.92311186
110	0xbf261b65	-0.6488555
111	0xbaca77b5	-0.0015447052
112	0x39c8af69	0.00038277663
113	0xbb8f7aec	-0.004378667
114	0xbae4c852	-0.001745472
115	0xbe244366	-0.16041335
116	0xc08e2b80	-4.44281
117	0xc07a1152	-3.9073071
118	0xc0495d15	-3.1463063
119	0xbb24f1f8	-0.0025168639
120	0xbeddde74	-0.4333378
121	0xbcdda170	-0.027054518
122	0xbe663959	-0.22482814
123	0xbca6aa92	-0.020345006
124	0xbcca1904	-0.024670132
125	0xbcd8ac59	-0.02644937
126	0xbdf0adb5	-0.11751882
127	0xbf08c099	-0.5341888
128	0xbf1f032f	-0.6211423
129	0xbd1419a7	-0.036157276
130	0xbe80fc7a	-0.25192624
131	0xbbf39cf3	-0.0074344813
132	0xbc88fb4e	-0.016721394
133	0xbc69eb6a	-0.0142773185
134	0xbda4bc4c	-0.08043727
135	0xbf279aaa	-0.65470374
136	0xbc07f2d1	-0.008297638
137	0xbe1250aa	-0.14288583
138	0x3b2372d2	0.0024940264
139	0x3dfb2cab	0.12264379
140	0x3a9c37b4	0.0011918456
141	0xbab07942	-0.0013463872
142	0x3bae6b82	0.0053228745
143	0xbcac0bb3	-0.021001672
144	0xbb151459	-0.0022747724
145	0xbc22a62d	-0.009927315
146	0xb9f8f426	-0.0004748415
147	0xbd53af73	-0.051680993
148	0xc02f1efc	-2.7362661
149	0xc01f122f	-2.4854848
150	0xbff3d27a	-1.9048607
151	0xbba4318a	-0.0050107883
152	0xbb5a2182	-0.0033284132
153	0xbb111b2b	-0.0022141438
154	0xba17386b	-0.00057686
155	0x3d8cd473	0.06876459
156	0xbf02786f	-0.5096502
157	0xbf638fa6	-0.88891065
158	0xbf80b4b2	-1.0055144
159	0xbb9b6fbf	-0.004743546
160	0x38dc7f8c	0.00010514175
161	0xbcdaf700	-0.026729107
162	0xbbb11045	-0.005403551
163	0xbe149759	-0.1451086
164	0xbe24423f	-0.16040896
165	0xbe173ba1	-0.1476884
166	0xbe69c80b	-0.22830217
167	0xbcb492b2	-0.022042606
168	0x3b244adc	0.0025069034
169	0x3c55fe22	0.013061078
170	0xbb4fa60b	-0.0031684663
171	0xc0049bc9	-2.0720084
172	0xbe45b7fc	-0.19308466
173	0xbeae7840	-0.34076118
174	0xbe8e68be	-0.27814287
175	0xb9432822	-0.000186116
176	0xbe332f1f	-0.17498444
177	0xbd5451fe	-0.051836006
178	0xbe11cf41	-0.14239217
179	0xbd6056c6	-0.054770254
180	0xbe3b8eb4	-0.18316156
181	0xbdc0d99b	-0.09416505
182	0xbefd98fe	-0.49530786
183	0xbe2c64a0	-0.1683526
184	0xbe8cddd0	-0.2751298
185	0xbd644dd0	-0.05573827
186	0xbeaa84ec	-0.33304536
187	0xbad4ea42	-0.0016244131
188	0xbc4ef8f6	-0.012632599
189	0xbc0781fa	-0.008270735
190	0xbd2379d5	-0.03991111
191	0xbea3720b	-0.31922945
192	0xbab4283c	-0.0013744901
193	0xbb254863	-0.0025220148
194	0xbb3ce5a6	-0.0028823405
195	0xbd3d4476	-0.046207868
196	0xbefb4bcf	-0.49081275
197	0xbf51d24f	-0.8196153
198	0xbf280ebf	-0.656475
199	0xbb36f584	-0.0027917335
200	0xbd9d95bc	-0.07694575
201	0x3d821515	0.06351677
202	0xbd8a05f5	-0.067394175
203	0x3e7d0e50	0.24712491
204	0xbcef573b	-0.0292164
205	0xbce366b9	-0.027758943
206	0xbae618a4	-0.0017554951
207	0xbd91f2d2	-0.071263924
208	0xb9d97264	-0.00041474693
209	0x39ab2aa7	0.0003264744
210	0xbaad1c03	-0.0013207201
211	0xbda3f246	-0.08005194
212	0xbe3f5406	-0.18684396
213	0xbed6de77	-0.41966602
214	0xbe27896a	-0.16361013
215	0x3a36120e	0.00069454394
216	0x3b5a84b8	0.0033343267
217	0x3b81c7a1	0.003960565
218	0x3afebf6b	0.0019435709
219	0xbdda46fb	-0.1065807
220	0xbcdb8dab	-0.026800951
221	0xbce07ab8	-0.027402267
222	0xbbb09fa9	-0.0053901267
223	0x3afd9c42	0.0019348937
224	0xbdb263fc	-0.08710477
225	0xbf19a933	-0.600238
226	0xbe68f1f6	-0.22748551
227	0x3b3d572c	0.002889107
228	0x3bdb6b76	0.00669616
229	0x3b022c1f	0.0019862724
230	0x3c898dd8	0.01679127
231	0xbd955c09	-0.07292945
232	0x3b82a702	0.003987194
233	0x3bc6696c	0.0060550477
234	0x3b6d3307	0.0036193745
235	0xbe3274a7	-0.17427312
236	0xbc97f09b	-0.018547347
237	0xbd0a764e	-0.03380423
238	0xbcc4826f	-0.023987977
239	0x3b3f61a5	0.0029202488
240	0xbe95c70f	-0.29253432
241	0xbd86d979	-0.06584448
242	0xbe4f2108	-0.20227444
243	0xbdf27d47	-0.11840301
244	0xbe22e6f6	-0.15908417
245	0xbdf2ec98	-0.11861533
246	0xbe3df242	-0.18549445
247	0xbe96be82	-0.2944222
248	0xbc502ae9	-0.012705543
249	0xbc133dc2	-0.008986892
250	0xbc864fcb	-0.01639547
251	0xbdc7a297	-0.097478084
252	0xbd815917	-0.06315821
253	0xbd9a3a37	-0.07530635
254	0xbec5ba77	-0.38618824
255	0xbc0edd3d	-0.0087197395

bias f4 [2648]
0	0x3bdcca05	0.00673795
1	0x3ea59496	0.32339925
2	0xbf3fb451	-0.74884516
3	0x3e2bbb80	0.16770744
4	0x3ec13e67	0.37742922
5	0x3e4810aa	0.19537607
6	0x3f053c48	0.52045107
7	0xbe337926	-0.17526683
8	0x3f2a3204	0.6648257
9	0xbd9a3add	-0.075307585
10	0x3f42faf9	0.76164204
11	0x3e33916d	0.17535944
12	0x3eee2160	0.46509838
13	0x3f491287	0.78543895
14	0x3f38bb8d	0.7216118
15	0x3f121bfa	0.5707394
16	0x3f0c7bb0	0.5487623
17	0xbeac4b39	-0.3365114
18	0x3f316bb9	0.69304997
19	0x3eb99d8f	0.3625302
20	0x3e2b73ff	0.16743468
21	0xbef6e99d	-0.48225108
22	0x3f20caeb	0.6280963
23	0x3eafd67b	0.34343323
24	0x3f0c4c53	0.5480396
25	0xbf2483de	-0.64263713
26	0x3ea6b86f	0.32562587
27	0x3e001889	0.1250936
28	0x3e2fa4e8	0.1715275
29	0x3e0c912b	0.13727252
30	0x3f2b54f7	0.6692652
31	0x3e913a17	0.28364632
32	0x3f68b454	0.9090016
33	0xbe158c38	-0.1460427
34	0x3e8f45c1	0.27982906
35	0x3f016155	0.5053914
36	0x3f5886ba	0.84580576
37	0x3f243d8e	0.64156425
38	0x3eb7f3dc	0.35928237
39	0x3ee08ba1	0.43856528
40	0x3f0106d8	0.5040107
41	0x3ea79e90	0.3273816
42	0xbdf8b164	-0.121432096
43	0x3cb675c9	0.022272961
44	0xbf3a6219	-0.72805935
45	0xbe2ac32e	-0.16676018
46	0x3e3d9b6e	0.18516323
47	0x3eea6f2a	0.45787936
48	0xbf014206	-0.5049137
49	0x3ee87a1e	0.45405668
50	0x3dba8e83	0.09109213
51	0x3e8a1355	0.26967874
52	0x3ed4f230	0.41591024
53	0xbe1eb2f9	-0.1549796
54	0xbe7a9572	-0.24471071
55	0x3f0b78c7	0.54481167
56	0x3ecd5835	0.4010636
57	0xbebd83d0	-0.37014627
58	0x3e2e8ac7	0.17045127
59	0xbf1d0664	-0.61337876
60	0x3ec211ac	0.37904108
61	0x3de7891e	0.1130545
62	0x3eac2e61	0.33629134
63	0x3ed25bd7	0.41085693
64	0x3f25e4a3	0.64801997
65	0xbcbf40fd	-0.023346419
66	0x3f1f15ae	0.62142456
67	0x3f6305fc	0.88681006
68	0x3eee9bf4	0.46603358
69	0xbe78d772	-0.24300936
70	0xbcf11698	-0.029429719
71	0x3ed79a81	0.42110065
72	0x3e5b610a	0.21423736
73	0x3eda8c02	0.42684942
74	0xbec6c236	-0.38820046
75	0x3eb0f9df	0.34565637
76	0xbe4d3263	-0.20038752
77	0x3f0e8b29	0.5568109
78	0xbdb8fb51	-0.0903231
79	0x3e47ae9c	0.19500202
80	0x3dc2cae3	0.09511354
81	0x3e5df86c	0.21676797
82	0x3ee21822	0.44159037
83	0x3da99934	0.08281174
84	0x3e224f5f	0.1585059
85	0x3dedb577	0.11606877
86	0x3f1ba6bf	0.6080131
87	0x3ec43159	0.383189
88	0x3e0b0a82	0.13578227
89	0x3e7687ef	0.24075292
90	0x3e9eae4f	0.30992362
91	0xbf27b796	-0.65514505
92	0x3e801925	0.25019184
93	0x3e10bf80	0.14135551
94	0x3f2361e0	0.6382122
95	0x3f1db37e	0.6160201
96	0x3f111c11	0.5668345
97	0x3eb9401e	0.3618173
98	0x3f3aae68	0.7292237
99	0x3f0b80b1	0.5449324
100	0x3f11abcd	0.5690277
101	0x3e4838f8	0.19552982
102	0x3f302dca	0.6881987
103	0xbf074356	-0.5283712
104	0xbefa9f28	-0.48949552
105	0xbd8e3040	-0.06942797
106	0xbd653359	-0.055957172
107	0x3e8203f0	0.2539363
108	0x3ef3cf75	0.47619215
109	0xbc6af3dc	-0.014340367
110	0x3ed5bc3c	0.41745174
111	0x3d968741	0.073500164
112	0x3ed3a720	0.41338444
113	0xbeefba7c	-0.46821964
114	0xbed1c722	-0.4097224
115	0x3ed5cd7d	0.41758338
116	0xbe842b4e	-0.2581429
117	0xbea0f943	-0.31440172
118	0x3d993ea7	0.07482653
119	0x3d7d07cd	0.061775018
120	0xbf0608f9	-0.5235744
121	0xbf19b17e	-0.60036457
122	0x3e7b6082	0.24548534
123	0x3effd553	0.4996744
124	0x3f01f4bb	0.50764054
125	0x3ea21ebb	0.3166407
126	0xbe89c916	-0.2691123
127	0x3e0aea69	0.13565983
128	0xbde87067	-0.11349564
129	0xbd9bc8c4	-0.076066524
130	0x3f5bdf05	0.85887176
131	0x3ea0ca71	0.3140445
132	0xbea3d769	-0.32000282
133	0xbdd934c7	-0.106057696
134	0x3e3753ed	0.17903109
135	0x3ec81f82	0.3908654
136	0xbab8fd9a	-0.0014113665
137	0x3d743b6e	0.05962699
138	0x3e809801	0.2511597
139	0xbed0d790	-0.4078946
140	0x3eb8a372	0.360622
141	0x3f1ea354	0.6196797
142	0x3eb490ae	0.35266632
143	0x3dcdcc9e	0.10048793
144	0x3f22fcea	0.63667166
145	0x3d8ea745	0.06965498
146	0x3f1c8e7a	0.611549
147	0xbf673b8a	-0.90325224
148	0xbe854fa9	-0.26037338
149	0xbf178c32	-0.59198296
150	0x3ebc53f7	0.3678281
151	0xbe884c8e	-0.26620907
152	0x3f3b9c07	0.73284954
153	0xbe90bcf7	-0.2826917
154	0x3f3c4303	0.7353975
155	0x3f477645	0.7791484
156	0x3f441db7	0.7660784
157	0x3f3f599c	0.7474611
158	0x3f0458fb	0.51698273
159	0x3e3fa683	0.18715863
160	0x3f3d6f20	0.7399769
161	0x3e07cdc1	0.13262083
162	0x3ee16a9a	0.44026643
163	0x3ebc2fce	0.36755222
164	0x3e10d188	0.1414243
165	0x3e971434	0.295076
166	0xbf15f866	-0.5858215
167	0xbecd6313	-0.4011465
168	0x3f038cbf	0.51386636
169	0x3e2ec07d	0.17065616
170	0x3e08f5cb	0.13375013
171	0x3e88aca9	0.2669423
172	0x3f0a89fd	0.54116803
173	0xbf1c2710	-0.60997105
174	0x3e96290d	0.29328194
175	0x3ed01687	0.40642187
176	0xbf82dd8d	-1.0223862
177	0x3f2dff04	0.6796725
178	0xbe866658	-0.26249957
179	0x3d13f0b2	0.036118217
180	0x3e5c614c	0.21521491
181	0x3ed29652	0.4113031
182	0x3f48bd7e	0.7841414
183	0x3f1b296b	0.60610074
184	0x3f4d323e	0.8015479
185	0xbd1e55b5	-0.038655955
186	0x3e4f8940	0.202672
187	0x3e568423	0.20948844
188	0x3f50fc6c	0.81635165
189	0x3f4475bf	0.76742166
190	0x3f61f5a1	0.88265425
191	0x3f5bf286	0.85916936
192	0x3f169068	0.58814096
193	0x3f58804d	0.8457077
194	0x3f40693f	0.7516059
195	0x3f38eaa9	0.72233063
196	0x3f3fd1e8	0.74929667
197	0x3f2ea3f2	0.6821891
198	0x3edad6e8	0.42742085
199	0x3f47a12b	0.779803
200	0x3f0fdbdd	0.5619486
201	0x3f2c5d49	0.6732984
202	0x3f2c160d	0.67221147
203	0x3f4ef6a6	0.80845106
204	0x3f1662f9	0.5874477
205	0x3f0d2147	0.551289
206	0x3f65c720	0.89756966
207	0x3f641651	0.8909655
208	0x3f3ab2de	0.7292918
209	0x3f1b402e	0.60644805
210	0xbe40a227	-0.18811856
211	0x3f50df10	0.81590366
212	0xbc834720	-0.016025126
213	0x3e349988	0.17636693
214	0x3f56115f	0.83620256
215	0x3ee5d089	0.44885662
216	0x3f77ad28	0.9674859
217	0x3f37b94d	0.7176712
218	0x3e5aa804	0.21353155
219	0xbf2887f5	-0.65832454
220	0xbf8d8c96	-1.1058528
221	0x3ea57f1b	0.32323536
222	0x3db01ecb	0.08599623
223	0x3e7ab58e	0.2448332
224	0x3e8d43c9	0.27590778
225	0x3f090a63	0.53531474
226	0x3f130d44	0.57442117
227	0x3efa85a2	0.4893008
228	0x3dac38dc	0.084092826
229	0x3f5d7092	0.86499894
230	0x3f167f65	0.5878814
231	0x3f10154b	0.5628249
232	0xbd76f338	-0.060290545
233	0x3f0c3279	0.54764515
234	0x3f12b657	0.5730948
235	0x3eb7f2cd	0.3592743
236	0x3e95b789	0.2924159
237	0x3c99f9a1	0.01879579
238	0x3e85a319	0.26100996
239	0x3f0f9bbf	0.56097025
240	0x3f1004af	0.56257147
241	0x3f37b104	0.7175448
242	0x3f7297c3	0.9476282
243	0x3f6e3981	0.93056494
244	0x3f67f8c3	0.90613955
245	0x3f78daab	0.9720866
246	0x3f685af5	0.9076379
247	0x3f45e404	0.7730105
248	0x3f148d2b	0.58027905
249	0x3f55aa77	0.83463234
250	0xbd191656	-0.037374817
251	0x3f3a5a77	0.7279429
252	0x3f66ea61	0.90201384
253	0x3f712f8d	0.9421318
254	0x3f6f9d08	0.93598986
255	0x3f559d92	0.8344356
